…
      "Model: \"functional_14\"\n",
      "__________________________________________________________________________________________________\n",
      "Layer (type)                    Output Shape         Param #     Connected to                     \n",
      "==================================================================================================\n",
      "input_18 (InputLayer)           [(None, 96, 128, 3)] 0                                            \n",
      "__________________________________________________________________________________________________\n",
      "conv2d_81 (Conv2D)              (None, 96, 128, 32)  896         input_18[0][0]                   \n",
      "__________________________________________________________________________________________________\n",
      "conv2d_82 (Conv2D)              (None, 96, 128, 32)  9248        conv2d_81[0][0]                  \n",
      "__________________________________________________________________________________________________\n",
      "max_pooling2d_20 (MaxPooling2D) (None, 48, 64, 32)   0           conv2d_82[0][0]                  \n",
      "__________________________________________________________________________________________________\n",
      "conv2d_83 (Conv2D)              (None, 48, 64, 64)   18496       max_pooling2d_20[0][0]           \n",
      "__________________________________________________________________________________________________\n",
      "conv2d_84 (Conv2D)              (None, 48, 64, 64)   36928       conv2d_83[0][0]                  \n",
      "__________________________________________________________________________________________________\n",
      "max_pooling2d_21 (MaxPooling2D) (None, 24, 32, 64)   0           conv2d_84[0][0]                  \n",
      "__________________________________________________________________________________________________\n",
      "conv2d_85 (Conv2D)              (None, 24, 32, 128)  73856       max_pooling2d_21[0][0]           \n",
      "__________________________________________________________________________________________________\n",
      "conv2d_86 (Conv2D)              (None, 24, 32, 128)  147584      conv2d_85[0][0]                  \n",
      "__________________________________________________________________________________________________\n",
      "max_pooling2d_22 (MaxPooling2D) (None, 12, 16, 128)  0           conv2d_86[0][0]                  \n",
      "__________________________________________________________________________________________________\n",
      "conv2d_87 (Conv2D)              (None, 12, 16, 256)  295168      max_pooling2d_22[0][0]           \n",
      "__________________________________________________________________________________________________\n",
      "conv2d_88 (Conv2D)              (None, 12, 16, 256)  590080      conv2d_87[0][0]                  \n",
      "__________________________________________________________________________________________________\n",
      "dropout_9 (Dropout)             (None, 12, 16, 256)  0           conv2d_88[0][0]                  \n",
      "__________________________________________________________________________________________________\n",
      "max_pooling2d_23 (MaxPooling2D) (None, 6, 8, 256)    0           dropout_9[0][0]                  \n",
      "__________________________________________________________________________________________________\n",
      "conv2d_89 (Conv2D)              (None, 6, 8, 512)    1180160     max_pooling2d_23[0][0]           \n",
      "__________________________________________________________________________________________________\n",
      "conv2d_90 (Conv2D)              (None, 6, 8, 512)    2359808     conv2d_89[0][0]                  \n",
      "__________________________________________________________________________________________________\n",
      "dropout_10 (Dropout)            (None, 6, 8, 512)    0           conv2d_90[0][0]                  \n",
      "__________________________________________________________________________________________________\n",
      "conv2d_transpose_16 (Conv2DTran (None, 12, 16, 256)  1179904     dropout_10[0][0]                 \n",
      "__________________________________________________________________________________________________\n",
      "concatenate_15 (Concatenate)    (None, 12, 16, 512)  0           conv2d_transpose_16[0][0]        \n",
      "                                                                 dropout_9[0][0]                  \n",
      "__________________________________________________________________________________________________\n",
      "conv2d_91 (Conv2D)              (None, 12, 16, 256)  1179904     concatenate_15[0][0]             \n",
      "__________________________________________________________________________________________________\n",
      "conv2d_92 (Conv2D)              (None, 12, 16, 256)  590080      conv2d_91[0][0]                  \n",
      "__________________________________________________________________________________________________\n",
      "conv2d_transpose_17 (Conv2DTran (None, 24, 32, 128)  295040      conv2d_92[0][0]                  \n",
      "__________________________________________________________________________________________________\n",
      "concatenate_16 (Concatenate)    (None, 24, 32, 256)  0           conv2d_transpose_17[0][0]        \n",
      "                                                                 conv2d_86[0][0]                  \n",
      "__________________________________________________________________________________________________\n",
      "conv2d_93 (Conv2D)              (None, 24, 32, 128)  295040      concatenate_16[0][0]             \n",
      "__________________________________________________________________________________________________\n",
      "conv2d_94 (Conv2D)              (None, 24, 32, 128)  147584      conv2d_93[0][0]                  \n",
      "__________________________________________________________________________________________________\n",
      "conv2d_transpose_18 (Conv2DTran (None, 48, 64, 64)   73792       conv2d_94[0][0]                  \n",
      "__________________________________________________________________________________________________\n",
      "concatenate_17 (Concatenate)    (None, 48, 64, 128)  0           conv2d_transpose_18[0][0]        \n",
      "                                                                 conv2d_84[0][0]                  \n",
      "__________________________________________________________________________________________________\n",
      "conv2d_95 (Conv2D)              (None, 48, 64, 64)   73792       concatenate_17[0][0]             \n",
      "__________________________________________________________________________________________________\n",
      "conv2d_96 (Conv2D)              (None, 48, 64, 64)   36928       conv2d_95[0][0]                  \n",
      "__________________________________________________________________________________________________\n",
      "conv2d_transpose_19 (Conv2DTran (None, 96, 128, 32)  18464       conv2d_96[0][0]                  \n",
      "__________________________________________________________________________________________________\n",
      "concatenate_18 (Concatenate)    (None, 96, 128, 64)  0           conv2d_transpose_19[0][0]        \n",
      "                                                                 conv2d_82[0][0]                  \n",
      "__________________________________________________________________________________________________\n",
      "conv2d_97 (Conv2D)              (None, 96, 128, 32)  18464       concatenate_18[0][0]             \n",
      "__________________________________________________________________________________________________\n",
      "conv2d_98 (Conv2D)              (None, 96, 128, 32)  9248        conv2d_97[0][0]                  \n",
      "__________________________________________________________________________________________________\n",
      "conv2d_99 (Conv2D)              (None, 96, 128, 32)  9248        conv2d_98[0][0]                  \n",
      "__________________________________________________________________________________________________\n",
      "conv2d_100 (Conv2D)             (None, 96, 128, 23)  759         conv2d_99[0][0]                  \n",
      "==================================================================================================\n",
      "Total params: 8,640,471\n",
      "Trainable params: 8,640,471\n",
      "Non-trainable params: 0\n",
      "__________________________________________________________________________________________________\n"
     ]
    }
   ],
   "source": [
…
